model.pth (torch, 13053 bytes, 6 tensors)

fc1.weight f4 [64, 5]
0.29741767 -0.104202054 0.35225883 0.21517166 -0.37367827 -0.08504045 -0.38488272 0.3531531
0.30676785 -0.091727346 -0.47892883 -0.47025967 0.4591099 0.46516573 0.23808469 0.31581274
-0.14725372 -0.36145866 0.0040144436 0.4915684 -0.22468832 0.15725645 -0.18098065 -0.08488877
0.06351134 0.39232323 0.312562 -0.40896967 -0.44440594 -0.49413717 -0.34836534 0.3247754
-0.07174238 0.4399166 -0.18679059 0.439516 0.08988797 -0.37116075 -0.035022374 -0.2790106
-0.3764956 0.31350204 0.0051181163 -0.23301359 0.45732114 0.025954084 0.047150694 -0.22997563
0.35561213 -0.29730618 0.1335213 -0.13793159 -0.18555152 0.38493815 0.24150123 0.065244325
-0.42602164 -0.11895034 -0.5068464 0.46969867 -0.37111053 0.25077197 -0.2578485 -0.37191772
-0.26029974 0.21088085 -0.26452795 0.49154598 0.16865751 -0.43570164 0.4031408 0.27328506
0.48623115 -0.32827958 0.19635925 0.105333395 0.18006618 0.28271186 0.41330975 -0.0008502578
0.43581837 0.2041674 -0.26500043 -0.04097978 -0.40586096 -0.13393863 0.2946395 0.30867535
-0.37401846 0.36218393 -1.3181272e-05 -0.4327041 0.32575053 0.18281911 0.16016273 -0.31232914
0.04726605 -0.16424619 0.020942671 -0.19850315 0.51167476 -0.03487156 -0.51662076 -0.3660897
-0.5097282 0.23866986 -0.3392238 -0.1879473 0.4293143 0.29409924 -0.17730905 -0.08883456
-0.36656103 -0.35436428 -0.21542865 -0.18481995 -0.31014162 0.3580335 -0.44484958 0.19583857
0.15924643 -0.22184293 -0.22495067 -0.48873898 -0.48654625 -0.28250608 0.28112918 -0.09720726
-0.13678592 0.1455815 -0.42184383 0.25516027 0.23018424 0.4867342 0.03775635 0.25082022
0.12323854 0.28602478 0.06823403 -0.3970147 -0.1574903 0.47745 0.059373047 0.41434288
-0.06700671 -0.33011103 0.47439942 0.32014078 0.3318227 0.032645803 0.13968483 -0.067729376
0.5002067 0.36191 -0.40898478 -0.48090348 0.16704486 -0.30515185 -0.41451198 0.11121487
0.014850113 0.4652669 0.22088031 0.35719103 -0.35426375 0.043448742 -0.1477433 -0.508007
0.3862321 0.5120883 0.29914272 -0.16345236 0.14938621 0.18687357 -0.4836069 -0.46985406
-0.16509458 0.2143379 -0.36876437 -0.35520038 -0.09202257 -0.32360125 0.17024288 0.4976096
-0.46023417 -0.37936476 0.047224566 -0.44010943 0.22880857 -0.47927734 -0.015055627 0.16436744
-0.32602125 -0.21955174 -0.15618972 0.46266174 0.36812505 -0.052316207 0.22325277 -0.22300926
-0.47067904 0.30917016 -0.3113813 -0.32897303 -0.109603375 -0.031638917 -0.3225202 -0.38040745
-0.26812294 -0.13655129 -0.49716333 -0.1164569 -0.17220569 0.4183422 -0.16667789 -0.49928525
0.46526876 -0.29347223 -0.044377267 0.40832987 -0.020196194 -0.50516886 -0.10415155 -0.17462361
0.33231506 0.0029306987 -0.29424202 0.18893361 0.2924621 0.11958373 -0.4689183 -0.26450008
-0.1396578 -0.01078746 0.3193579 0.37968677 0.14757894 -0.25849453 -0.09292612 0.45480004
-0.12270651 -0.049317144 -0.4403887 -0.064305484 0.31895792 0.3583167 -0.12756385 0.49799728
-0.014649898 -0.43533888 0.31874433 -0.15691045 -0.07852376 0.4517463 0.2813638 -0.23895402
00000000: 2147 983e e367 d5bd 455b b43e f655 5c3e
00000010: c252 bfbe b029 aebd 590f c5be 7cd0 b43e
00000020: ad10 9d3e 8cdb bbbd 2936 f5be e0c5 f0be
00000030: 7410 eb3e 342a ee3e 79cc 733e 35b2 a13e
00000040: aec9 16be 1c11 b9be 988b 833b daae fb3e
00000050: b214 66be d607 213e fe52 39be 2ada adbd
00000060: 3c12 823d 97de c83e 2008 a03e 7964 d1be
00000070: 2d89 e3be 8cff fcbe f15c b2be f648 a63e
00000080: abed 92bd c03c e13e 0846 3fbe 3e08 e13e
00000090: 2f17 b83d c808 bebe 9f73 0fbd 7ada 8ebe
000000a0: 08c4 c0be 5783 a03e dfb5 a73b 1d9b 6ebe
000000b0: ff25 ea3e a99d d43c 1621 413d bb7e 6bbe
000000c0: cb12 b63e 8438 98be cfb9 083e f03d 0dbe
000000d0: 3801 3ebe 9d16 c53e 194c 773e d19e 853d
000000e0: 821f dabe 3c9c f3bd b0c0 01bf 587c f03e
000000f0: 3302 bebe 2f65 803e b804 84be 006c bebe
00000100: 0246 85be 26f1 573e 3570 87be eaab fb3e
00000110: 8eb4 2c3e 4914 dfbe 7968 ce3e 05ec 8b3e
00000120: 4af3 f83e 4314 a8be 6612 493e 09b9 d73d
00000130: 4563 383e 9cbf 903e 569d d33e d6e3 5eba
00000140: 9623 df3e 4211 513e 23ae 87be 6ada 27bd
00000150: 02cd cfbe 3527 09be fdda 963e b20a 9e3e
00000160: 597f bfbe 2c70 b93e 2225 5db7 648b ddbe
00000170: c6c8 a63e ef34 3b3e b301 243e 9be9 9fbe
00000180: 0c9a 413d 2730 28be f78f ab3c 6944 4bbe
00000190: 1efd 023f 7bd5 0ebd 4241 04bf 1c70 bbbe
000001a0: 8c7d 02bf df65 743e beae adbe 4275 40be
000001b0: 15cf db3e 2d94 963e 8190 35be e5ee b5bd
000001c0: e3ad bbbe 3c6f b5be 5499 5cbe 7141 3dbe
000001d0: e2ca 9ebe 2b50 b73e 53c3 e3be e889 483e
000001e0: 7f11 233e cb2a 63be 7859 66be ff3b fabe
000001f0: 971c f9be a3a4 90be 2af0 8f3e 9a14 c7bd
00000200: 9c11 0cbe 5113 153e eafb d7be 5ea4 823e
00000210: 6bb5 6b3e 3a35 f93e 67a6 1a3d 826b 803e
00000220: 7d64 fc3d d771 923e 48be 8b3d 8345 cbbe
00000230: 2345 21be 5474 f43e 2731 733d c024 d43e
00000240: d03a 89bd 5004 a9be 7be4 f23e 7ee9 a33e
00000250: aae4 a93e 9bb7 053d 8a09 0f3e b3b5 8abd
00000260: 8c0d 003f 444c b93e 7466 d1be fb38 f6be
00000270: cf0d 2b3e dd3c 9cbe ea3a d4be 9fc4 e33d
00000280: e34d 733c 7737 ee3e 732e 623e bee1 b63e
00000290: 0f62 b5be 4ff7 313d 054a 17be bf0c 02bf
000002a0: 37c0 c53e 3818 033f 3c29 993e 0e60 27be
000002b0: b3f8 183e c95b 3f3e 539b f7be b690 f0be
000002c0: 8e0e 29be 657b 5b3e afce bcbe d3dc b5be
000002d0: 5476 bcbd 10af a5be 2654 2e3e afc6 fe3e
000002e0: d0a3 ebbe 193c c2be 8c6e 413d 0656 e1be
000002f0: cb4c 6a3e d763 f5be e0ab 76bc f04f 283e
00000300: 42ec a6be 2cd2 60be 33f0 1fbe 00e2 ec3e
00000310: e37a bc3e 8549 56bd 609c 643e 8a5c 64be
00000320: d8fc f0be 8d4b 9e3e 5f6d 9fbe 276f a8be
00000330: bc77 e0bd cf97 01bd 5e21 a5be c4c4 c2be
00000340: 6947 89be 1ad4 0bbe 318c febe f580 eebd
00000350: b056 30be f330 d63e 9cad 2abe 51a2 ffbe
00000360: b537 ee3e fe41 96be f0c4 35bd 9d10 d13e
00000370: 7d72 a5bc bf52 01bf 684d d5bd 88d0 32be
00000380: 3325 aa3e f710 403b e4a6 96be d077 413e
00000390: 98bd 953e 51e8 f43d 0f16 f0be 8e6c 87be
000003a0: 7402 0fbe e3bd 30bc e182 a33e 4e66 c23e
000003b0: ef1e 173e 6559 84be 0d50 bebd 8ddb e83e
000003c0: 8d4d fbbd c600 4abd a17a e1be 98b2 83bd
000003d0: 744e a33e 4975 b73e 19a0 02be 80f9 fe3e
000003e0: 2006 70bc bde4 debe 7532 a33e 22ad 20be
000003f0: 11d1 a0bd 4b4b e73e ea0e 903e 5db0 74be

fc1.bias f4 [64]
-0.023967633 0.08691725 0.36218473 0.062410552 -0.053903516 0.27581123 0.3172046 0.31843227
0.30020213 -0.4253189 0.48039222 0.08837027 0.030534975 -0.25143602 -0.17086494 0.35472852
0.48096007 0.29540297 -0.104860656 -0.18840389 -0.22966336 0.13150343 0.33977637 -0.37394935
0.123736076 0.16303377 0.20659329 0.18660943 -0.3424662 -0.10602226 0.025109788 -0.35471445
0.29856285 0.41649523 0.0446028 0.13853878 -0.17803408 0.45160204 0.3677918 0.012019048
0.010721097 0.33483693 -0.35122037 -0.22894958 0.3710135 -0.118117206 0.29905498 0.09663423
0.3433454 -0.124771826 0.40702316 -0.2245176 0.3333339 0.44687137 0.082115486 0.3351048
-0.22882368 -0.075768076 -0.26431867 0.04630206 -0.19645868 0.120692134 -0.04681156 0.2083097
00000000: c557 c4bc ac01 b23d 4770 b93e 35a2 7f3d
00000010: efc9 5cbd 2137 8d3e a468 a23e 8e09 a33e
00000020: 18b4 993e 66c3 d9be f8f5 f53e 79fb b43d
00000030: 7c24 fa3c 39bc 80be 38f7 2ebe fa9e b53e
00000040: 6640 f63e 0f3f 973e 2fc1 d6bd f3ec 40be
00000050: df2c 6bbe d6a8 063e 2bf7 ad3e 4a76 bfbe
00000060: 5769 fd3d 53f2 263e 318d 533e 8b16 3f3e
00000070: bb57 afbe 3322 d9bd 0bb3 cd3c 229d b5be
00000080: 3bdd 983e dd3e d53e 6db1 363d 1cdd 0d3e
00000090: 914e 36be 6238 e73e 354f bc3e 8beb 443c
000000a0: 8aa7 2f3c bf6f ab3e 28d3 b3be c271 6abe
000000b0: 7bf5 bd3e 6fe7 f1bd bc1d 993e 2be8 c53d
000000c0: f8ca af3e 5f88 ffbd 5765 d03e f1e7 65be
000000d0: beaa aa3e 53cc e43e 2a2c a83d db92 ab3e
000000e0: c150 6abe 4b2c 9bbd c754 87be 3ba7 3d3d
000000f0: 772c 49be 702d f73d 7abd 3fbd 234f 553e

fc2.weight f4 [32, 64]
-0.06769847 -0.08010059 -0.13157655 -0.07602522 -0.040355712 0.052827924 -0.07775706 -0.118119426
0.039057992 -0.0634576 -0.1199619 -0.10087834 0.047624674 0.048674595 0.062109496 0.028463462
0.07108909 0.036205 0.028494881 -0.13442028 0.08691238 0.06157061 -0.054244347 -0.108476646
-0.11932243 0.0052208127 -0.08678796 -0.10840514 -0.009771939 -0.13676487 -0.13354987 -0.07365601
0.04440145 -0.0028046973 -0.0012655723 -0.1363391 -0.004207713 -0.05206684 0.097082056 -0.07750165
0.08424462 0.0027760654 -0.039066058 -0.055854533 -0.10833181 -0.014722164 -0.023957437 -0.018222116
0.096380204 -0.13113487 0.047446165 0.055817023 -0.030753847 0.0931633 -0.12200421 -0.05195628
-0.04598914 0.02020344 -0.03333392 -0.10959628 -0.13825735 0.068625666 0.10103209 0.10592281
0.122409426 0.13927127 0.10715509 0.035010125 -0.027973 0.17812859 0.04699152 0.08250532
-0.024404809 -0.028425368 0.03774443 0.16502295 0.16252053 0.04859071 0.124100894 0.046849668
0.101538464 0.031201433 0.072731785 0.066352464 0.16051698 0.012503626 -0.07189446 0.1484923
-0.0068994677 0.10170214 0.088925004 -0.042529788 -0.015139098 0.15422456 0.16482466 0.1265067
0.007746877 -0.0015397436 0.12129096 0.004523087 0.04922857 0.13978201 0.1584622 0.08317628
0.07884395 0.1056997 0.024058724 0.17479694 0.10374363 -0.053751454 0.08178569 0.076513536
0.072249316 0.14843076 0.1446395 0.08937722 0.051163334 0.13994208 0.09793008 -0.033054236
0.1537736 0.086801946 0.004759448 0.0019485625 0.11068868 0.16849177 -0.070048764 -0.03617799
0.036903016 0.07910755 0.023677249 0.111998826 0.10284367 0.024010109 0.18451364 -0.05803431
0.085870735 -0.003257893 0.17622612 0.072282314 0.08460658 0.05718237 0.14809427 -0.020017128
-0.041050095 0.035768274 0.17161988 0.031226462 0.13263722 -0.038991474 -0.012942757 0.09800108
0.009518329 0.18764223 -0.031437356 0.14006235 0.03737051 0.12560071 -0.008153473 0.036335237
0.13537087 0.06610601 0.16303466 0.003907706 0.070318155 0.15657938 0.14197654 0.09051596
-0.04925678 0.11019739 0.18198434 0.13233815 0.12380161 -0.039228816 0.029042738 0.18908437
0.114388734 0.1317523 0.18335675 -0.02863603 0.1340213 0.061764725 0.13596231 0.17291117
-0.047651373 0.04305066 -0.0025998056 0.009490973 -0.06382494 -0.039919157 0.15599492 0.023457449
0.041922465 -0.07616051 0.053311683 -0.05803783 -0.08482552 -0.05828942 0.024552649 0.07614852
0.061566208 0.038812805 0.07361057 0.081435345 0.0030998918 0.064020686 -0.011035667 -0.024998317
-0.06379368 0.013004274 -0.122304775 -0.070907705 -0.00029016874 0.068174295 -0.047405515 -0.083154224
-0.08687255 0.021874664 -0.057005584 -0.010523445 -0.14871907 -0.06740155 -0.112784736 -0.10213366
-0.047933776 0.052548803 -0.026024105 -0.033473484 -0.081350885 0.049595352 0.031868473 0.004939673
0.09059411 -0.124641985 -0.108737946 0.030708624 0.053241566 -0.044213973 -0.024551604 -0.076280214
-0.04967336 -0.098458834 -0.11952807 -0.10720135 -0.06912136 -0.006663892 -0.07590887 -0.0019315353
0.08990173 -0.09329853 0.06549985 -0.14649987 -0.10571263 -0.0070253867 0.06277205 -0.018234376
00000000: 7fa5 8abd c70b a4bd 01bc 06be 1cb3 9bbd
00000010: 084c 25bd 1862 583d 183f 9fbd 99e8 f1bd
00000020: 46fb 1f3d 0ff6 81bd 96ae f5bd 4e99 cebd
00000030: 1712 433d 035f 473d 8766 7e3d 352c e93c
00000040: 2897 913d b24b 143d 196e e93c 78a5 09be
00000050: 1eff b13d 7731 7c3d 522f 5ebd 0129 debd
00000060: 515f f4bd 5a13 ab3b e3bd b1bd 8403 debd
00000070: 7c1a 20bc 170c 0cbe 4cc1 08be f6d8 96bd
00000080: 4bde 353d 03cf 37bb 8fe1 a5ba 7a9c 0bbe
00000090: dbe0 89bb 0a44 55bd f5d2 c63d 2fb9 9ebd
000000a0: 7188 ac3d a6ee 353b bb03 20bd b9c7 64bd
000000b0: 11dd ddbd 3b35 71bc 6342 c4bc 8c46 95bc
000000c0: fc62 c53d 3848 06be e956 423d 64a0 643d
000000d0: 7eef fbbc 66cc be3d 58dd f9bd 1cd0 54bd
000000e0: 1c5f 3cbd af81 a53c 2689 08bd 0474 e0bd
000000f0: 5693 0dbe 9d8b 8c3d eae9 ce3d 0fee d83d
00000100: cbb1 fa3d 219d 0e3e 2174 db3d c766 0f3d
00000110: a227 e5bc 5767 363e 2e7a 403d 8df8 a83d
00000120: 98ec c7bc 51dc e8bc e799 1a3d c7fb 283e
00000130: c86b 263e 0d07 473d 9c28 fe3d 70e5 3f3d
00000140: 66f3 cf3d 269a ff3c 67f4 943d cde3 873d
00000150: 905e 243e 02dc 4c3c 673d 93bd 5e0e 183e
00000160: ee14 e2bb 3649 d03d 501e b63d b733 2ebd
00000170: fb09 78bc 0bed 1d3e ccc7 283e f98a 013e
00000180: 84d9 fd3b 39d1 c9ba 6567 f83d 6736 943b
00000190: e6a3 493d 0423 0f3e ea43 223e 5358 aa3d
000001a0: f078 a13d 1679 d83d cd16 c53c f8fd 323e
000001b0: 8a77 d43d 7c2a 5cbd 417f a73d 21b3 9c3d
000001c0: 73f7 933d 3cfe 173e 611c 143e 670b b73d
000001d0: a590 513d fa4c 0f3e 918f c83d e163 07bd
000001e0: d476 1d3e 38c5 b13d 25f5 9b3b e866 ff3a
000001f0: bfb0 e23d 1b89 2c3e ba75 8fbd 5f2f 14bd
00000200: 9e27 173d 2403 a23d caf6 c13c a45f e53d
00000210: b49f d23d d9b0 c43c 25f1 3c3e 62b5 6dbd
00000220: ffdc af3d 6082 55bb 9f74 343e c008 943d
00000230: 3746 ad3d 1038 6a3d 06a6 173e f6fa a3bc
00000240: 2524 28bd c181 123d 1fbd 2f3e a3ce ff3c
00000250: 0dd2 073e 86b5 1fbd dc0d 54bc cab4 c83d
00000260: c4f2 1b3c 4925 403e 75c4 00bd 816c 0f3e
00000270: d211 193d 799d 003e 2596 05bc 42d4 143d
00000280: a99e 0a3e 9662 873d 8ff2 263e 370c 803b
00000290: f702 903d 5856 203e 4c62 113e 6e60 b93d
000002a0: 7ac1 49bd 2baf e13d 1a5a 3a3e a783 073e
000002b0: b38b fd3d 65ae 20bd 09eb ed3c 559f 413e
000002c0: a444 ea3d 13ea 063e dfc1 3b3e 1c96 eabc
000002d0: e13c 093e 02fd 7c3d b439 0b3e a00f 313e
000002e0: 162e 43bd e455 303d 8061 2abb 0780 1b3c
000002f0: a6b6 82bd 4582 23bd 22bd 1f3e d629 c03c
00000300: e4b6 2b3d 0bfa 9bbd 5a5d 5a3d 13b9 6dbd
00000310: 01b9 adbd e3c0 6ebd a322 c93c c1f3 9b3d
00000320: d92c 7c3d 2dfa 1e3d 23c1 963d 93c7 a63d
00000330: 8e27 4b3b 471d 833d f1ce 34bc 45c9 ccbc
00000340: 43a6 82bd e10f 553c ed7a fabd 0f38 91bd
00000350: ca21 98b9 f79e 8b3d 492c 42bd c34c aabd
00000360: 3cea b1bd 7f32 b33c b07e 69bd 876a 2cbc
00000370: d049 18be d309 8abd affb e6bd 742b d1bd
00000380: 3556 44bd 6a3d 573d 8130 d5bc 7e1b 09bd
00000390: 4b9b a6bd 7f24 4b3d 8488 023d fbdc a13b
000003a0: 6889 b93d 4c44 ffbd 00b2 debd a790 fb3c
000003b0: d413 5a3d b619 35bd 7220 c9bc cd38 9cbd
000003c0: 4b76 4bbd c9a4 c9bd 22cb f4bd 628c dbbd
000003d0: 808f 8dbd c75c dabb 1c76 9bbd 922b fdba
000003e0: 661e b83d 4d13 bfbd c924 863d 1004 16be
000003f0: dd7f d8bd 3735 e6bb a28e 803d 4260 95bc

fc2.bias f4 [32]
-0.11304076 -0.064407535 0.0727636 0.010354376 -0.062034134 -0.08176552 -0.018116716 -0.06621468
-0.012409381 0.17366149 0.023214899 0.055069853 0.12537025 -0.031509344 0.11624347 -0.038493745
0.17820631 0.058390554 -0.06353294 0.01871758 0.096917726 0.045574524 0.049172305 -0.03231786
0.08414485 -0.027320743 -0.05292804 0.07358389 -0.00010432098 -0.069089435 0.10204058 -0.05101027
00000000: ea81 e7bd 19e8 83bd 1505 953d 67a5 293c
00000010: 8117 7ebd ae74 a7bd 8269 94bc 909b 87bd
00000020: b750 4bbc 51d4 313e 2c2d be3c ed90 613d
00000030: 0f61 003e f10f 01bd 0e11 ee3d 9eab 1dbd
00000040: b77b 363e ef2a 6f3d 8f1d 82bd 9c55 993c
00000050: cd7c c63d 5aac 3a3d e668 493d bb5f 04bd
00000060: 2354 ac3d c0cf dfbc 13cb 58bd 27b3 963d
00000070: e6c6 dab8 c37e 8dbd a7fa d03d 25f0 50bd

fc3.weight f4 [4, 32]
-0.054122895 0.2237361 0.10491146 -0.08009852 -0.120364286 -0.08424577 -0.10101243 -0.04718825
0.18674761 0.19021256 0.1729749 0.06720608 0.2139935 0.1943003 0.037611693 0.22176464
0.11278027 0.2373085 -0.019882465 -0.15515481 -0.08699384 0.019835137 0.04384281 -0.020922938
0.037034567 0.11570503 -0.07204156 0.063330315 -0.013577072 -0.14094107 0.09585618 0.22015893
-0.052125026 0.014031426 0.013361635 0.104971424 0.13993388 -0.091747195 -0.044059496 -0.029830901
-0.1029104 -0.09573563 -0.0204838 -0.22010082 -0.10350473 -0.07914911 -0.053005967 0.083204255
-0.2004458 -0.17128126 0.017801814 0.050225757 -0.21861182 -0.18968053 0.033061694 -0.016366156
-0.046620395 -0.13874005 -0.052397575 -0.22608012 -0.011407879 0.106359415 0.02693227 0.051012926
0.15749843 -0.16123106 -0.108895496 -0.14241824 0.14417727 0.11206986 0.06614707 0.031626508
-0.23475535 -0.057165563 -0.10712965 -0.004289468 -0.21022958 -0.01923873 -0.16428015 0.026721708
0.07686248 -0.053536966 0.042913206 0.09432155 -0.14616442 -0.2451567 0.10723928 0.12253038
0.012077434 0.0083770305 -0.028698305 -0.21838114 0.082500346 0.05843879 -0.20035094 -0.21506625
-0.00288177 -0.033721324 -0.10632601 -0.00046462452 -0.1904791 0.12650903 -0.12345704 -0.02668801
-0.061438527 -0.08080114 -0.09499976 -0.17339745 -0.19942078 -0.18351837 -0.16831782 0.07175227
0.0025964829 -0.17525017 0.013798804 0.046941314 -0.1927876 -0.2100303 0.15018788 0.11476152
0.1474925 0.1647024 0.14415592 -0.24351433 0.13361542 -0.10930961 -0.086130224 -0.17564543
00000000: f8af 5dbd 141b 653e d2db d63d b10a a4bd
00000010: 8d81 f6bd 0c89 acbd 9bdf cebd 7748 41bd
00000020: c43a 3f3e 15c7 423e 5520 313e 57a3 893d
00000030: 1d21 5b3e a8f6 463e b80e 1a3d 4516 633e
00000040: 58f9 e63d 0001 733e 8de0 a2bc e7e0 1ebe
00000050: d429 b2bd 4c7d a23c 8594 333d 9566 abbc
00000060: 8fb1 173d c2f6 ec3d 878a 93bd 53b3 813d
00000070: 5e72 5ebc db52 10be 3f50 c43d 5871 613e
00000080: 0d81 55bd 11e4 653c c2ea 5a3c 42fb d63d
00000090: d44a 0f3e f4e5 bbbd bb77 34bd ef5f f4bc
000000a0: b0c2 d2bd 0b11 c4bd a4cd a7bc 1c62 61be
000000b0: 4afa d3bd ee18 a2bd c91c 59bd fe66 aa3d
000000c0: aa41 4dbe 5b64 2fbe 1cd5 913c 86b9 4d3d
000000d0: c7db 5fbe 9d3b 42be b36b 073d 5112 86bc
000000e0: 07f5 3ebd df11 0ebe d79e 56bd 8c81 67be
000000f0: 1de8 3abc f7d2 d93d 10a1 dc3c eef2 503d
00000100: 4547 213e c119 25be 9a04 dfbd 16d6 11be
00000110: 35a3 133e e284 e53d 1d78 873d cc8a 013d
00000120: b563 70be 7026 6abd ca66 dbbd aa8e 8cbb
00000130: 6c46 57be 8b9a 9dbc 0e39 28be 7ce7 da3c
00000140: 136a 9d3d 9449 5bbd c2c5 2f3d a82b c13d
00000150: 20ac 15be 5c0a 7bbe 45a0 db3d 35f1 fa3d
00000160: 6ee0 453c d03f 093c b518 ebbc 4e9f 5fbe
00000170: f1f5 a83d 835d 6f3d cc28 4dbe 543a 5cbe
00000180: 14dc 3cbb 5f1f 0abd 73c1 d9bd d998 f3b9
00000190: f40c 43be 958b 013e 0bd7 fcbd d0a0 dabc
000001a0: f7a6 7bbd 117b a5bd 3c8f c2bd 1a8f 31be
000001b0: f634 4cbe 3dec 3bbe 825b 2cbe dbf2 923d
000001c0: c129 2a3b c874 33be 6114 623c 8945 403d
000001d0: 1d6a 45be 2f12 57be daca 193e 1608 eb3d
000001e0: 4608 173e bfa7 283e 9c9d 133e d25b 79be
000001f0: 7bd2 083e b8dd dfbd 0b65 b0bd 65dc 33be

fc3.bias f4 [4]
0.0037562966 -0.20238021 0.11931155 -0.029578933
00000000: 332c 763b c23c 4fbe 9d59 f43d 854f f2bc
